checkpoint_resnet.pth (torch, 851715 bytes, 103 tensors)

stem.0.weight f4 [64, 1, 7]
-0.7588166 -0.10348389 0.0031567435 -0.17854692 0.30718476 -0.10583373 0.15029192 0.27057725
0.32766223 0.28929156 0.32019284 -0.29261643 0.31436905 0.012142565 -0.053852834 -0.12514727
-0.08725447 0.075292744 -0.28044087 -0.21731712 -0.40047824 -0.5198366 -0.21850833 -0.3849649
0.23260833 0.11047022 -0.16756438 -0.3435182 -0.3692528 -0.06449508 -0.23150587 0.07042245
0.20218362 0.14239036 0.3746407 0.039472003 -0.1697935 -0.30907387 0.06594785 0.17591284
0.120645426 0.19917023 0.039133754 0.05830754 0.18560646 0.09516846 0.07794791 0.26636636
0.46708182 -0.22079444 0.21124509 -0.011770473 -0.37204516 0.33153197 0.10074476 0.37613472
0.36719212 -0.21005683 0.3903002 -0.24024433 0.08504 -0.101496495 -0.5286007 0.56163037
-0.046675343 0.19931124 0.21856529 -0.39179543 0.06133802 -0.10626081 -0.4611714 -0.0092580905
-0.006627375 0.083752334 -0.18305007 -0.002604281 -0.16278867 0.032916266 -0.03957763 -0.47651845
0.0819 -0.22232234 0.0017929748 0.15843302 0.041224875 0.1012593 0.09369518 -0.21151932
0.22441384 -0.5727357 -0.28992888 0.47851253 0.116948545 -0.34890234 -0.11273887 -0.0408277
0.03753649 -0.11920436 -0.06951712 -0.20792587 -0.004066868 -0.074708946 -0.29766193 -0.020894887
0.45095003 -0.24928933 0.31854784 -0.32214445 0.29579645 -0.25822887 -0.28433385 0.23196577
0.43575022 0.20690256 0.06541671 0.19403715 0.15535595 -0.055121697 -0.25339648 0.07437019
-0.37762642 -0.35845688 -0.27460554 0.14324543 -0.15202071 0.12315543 0.40734464 -0.20011893
-0.35971054 0.1522462 0.13004132 0.3446879 -0.27138212 0.06773249 -0.10437012 -0.01608373
0.26467797 -0.11154817 -0.3914609 0.38656723 -0.48101038 0.06865605 -0.4023681 0.006399762
0.25392976 -0.17916444 -0.104181595 -0.24937718 -0.03426916 0.31443155 -0.32178316 0.31517026
0.13319457 0.42901936 -0.101870604 -0.015984695 -0.10259813 0.05026434 0.0028557095 -0.53454846
0.0016478745 0.1261059 0.08935993 0.32937348 0.026348237 -0.2672268 -0.39385825 0.05625251
-0.0039933 0.082054146 -0.015154157 0.015343629 0.114807114 0.020093648 -0.74803126 0.486853
0.075723924 0.003349578 -0.2419827 0.14709309 -0.39986804 -0.13567752 -0.11710377 -0.067607775
0.056177415 0.09184485 -0.28579593 0.20979483 -0.46451113 -0.21643215 -0.20502035 0.13772325
-0.30025288 -0.25436726 -0.43519032 -0.1843802 0.47068647 -0.1528868 0.23919713 -0.13259587
-0.21405344 -0.22829656 0.3694571 0.042291123 0.23672032 -0.36863783 -0.033597276 -0.17336012
-0.2975433 -0.19054331 0.23987757 -0.047598496 0.2301395 -0.14315422 0.3125002 -0.08830478
-0.37831825 -0.14243828 0.3134555 -0.06980196 -0.1708968 -0.26129127 -0.40116465 -0.4291534
0.27142033 -0.06532214 0.16682157 0.243711 -0.14141071 0.26992944 0.42939582 -0.05068578
-0.021613128 0.25313646 -0.4005628 0.1835 -0.28352857 0.1852735 0.2195099 -0.25548247
-0.2069948 -0.08920853 -0.37008384 -0.28165698 -0.034394775 0.07232333 -0.508832 0.13808852
-0.12727526 0.12320122 0.123417936 0.42558414 -0.44377756 -0.0844104 0.07530408 -0.1825269
00000000: ce41 42bf 5def d3bd 5ee1 4e3b 01d5 36be
00000010: 5247 9d3e 5bbf d8bd 20e6 193e 1a89 8a3e
00000020: 58c3 a73e 061e 943e 51f0 a33e d2d1 95be
00000030: fbf4 a03e 9cf1 463c ca94 5cbd 9b26 00be
00000040: 79b2 b2bd 1533 9a3d f295 8fbe 6188 5ebe
00000050: 7c0b cdbe 0314 05bf a6c0 5fbe 1f1a c5be
00000060: e130 6e3e 363e e23d ff95 2bbe 9ee1 afbe
00000070: b40e bdbe ff15 84bd e00f 6dbe a539 903d
00000080: 3909 4f3e c7ce 113e e8d0 bf3e 65ad 213d
00000090: 59de 2dbe ee3e 9ebe ab0f 873d 7f22 343e
000000a0: f314 f73d 48f3 4b3e b74a 203d e3d3 6e3d
000000b0: 9f0f 3e3e aee7 c23d 27a3 9f3d 2c61 883e
000000c0: 5925 ef3e f017 62be a250 583e f1d8 40bc
000000d0: b47c bebe 8fbe a93e 4553 ce3d bb94 c03e
000000e0: 9b00 bc3e 2319 57be 6ed5 c73e 9c02 76be
000000f0: 7429 ae3d 65dd cfbd 6052 07bf 02c7 0f3f
00000100: a52e 3fbd 3f18 4c3e 94cf 5f3e 6999 c8be
00000110: 933d 7b3d 449f d9bd a81e ecbe 3faf 17bc
00000120: 732a d9bb 5886 ab3d 7a71 3bbe 96ac 2abb
00000130: 13b2 26be 35d3 063d 271c 22bd 3afa f3be
00000140: 30bb a73d 78a8 63be 4002 eb3a 443c 223e
00000150: 6adb 283d 0961 cf3d 42e3 bf3d 8598 58be
00000160: becc 653e cf9e 12bf 8f71 94be 98ff f43e
00000170: b882 ef3d 54a3 b2be a3e3 e6bd f23a 27bd
00000180: ddbf 193d 6a21 f4bd fe5e 8ebd 85ea 54be
00000190: 5d43 85bb 0101 99bd 2567 98be c12b abbc
000001a0: ece2 e63e b445 7fbe b418 a33e 1ef0 a4be
000001b0: a272 973e 9336 84be 3594 91be 6f88 6d3e
000001c0: a71a df3e 44de 533e 32f9 853d adb1 463e
000001d0: a115 1f3e 4ac7 61bd 2fbd 81be 664f 983d
000001e0: 4058 c1be a987 b7be 1999 8cbe eeae 123e
000001f0: 51ab 1bbe ea38 fc3d 7a8f d03e faeb 4cbe
00000200: fb2b b8be 6ee6 1b3e 8d29 053e ef7a b03e
00000210: 99f2 8abe 55b7 8a3d 00c0 d5bd 07c2 83bc
00000220: df83 873e 5e73 e4bd 906d c8be 24ec c53e
00000230: fe46 f6be 8b9b 8c3d 3103 cebe 18b5 d13b
00000240: 1503 823e e276 37be 295d d5bd bb5c 7fbe
00000250: d25d 0cbd 2cfd a03e c3c0 a4be ff5d a13e
00000260: 2864 083e 6da8 db3e 89a1 d0bd 56f2 82bc
00000270: f81e d2bd fbe1 4d3d db26 3b3b 2bd8 08bf
00000280: 7efd d73a e821 013e 5702 b73d a4a3 a83e
00000290: 42d8 d73c f3d1 88be caa7 c9be 0869 663d
000002a0: 3ada 82bb 010c a83d 2449 78bc d863 7b3c
000002b0: fe1f eb3d 6f9b a43c fa7e 3fbf cc44 f93e
000002c0: 2515 9b3d 9884 5b3b 50ca 77be 929f 163e
000002d0: 81bb ccbe 0cef 0abe 1ad4 efbd f275 8abd
000002e0: 4a1a 663d 2719 bc3d d853 92be 75d4 563e
000002f0: 67d4 edbe 64a0 5dbe dbf0 51be 5307 0d3e
00000300: bfba 99be 6d3c 82be 44d1 debe 2ace 3cbe
00000310: d1fd f03e 5b8e 1cbe 18f0 743e 36c7 07be
00000320: d330 5bbe 93c6 69be 7b29 bd3e 7539 2d3d
00000330: d066 723e 19be bcbe 4c9d 09bd 5185 31be
00000340: 9857 98be c91d 43be 77a2 753e a4f6 42bd
00000350: b0a9 6b3e 0597 12be 0700 a03e 23d9 b4bd
00000360: eeb2 c1be 57db 11be 3d7d a03e 54f4 8ebd
00000370: 92ff 2ebe f8c7 85be 7465 cdbe ffb9 dbbe
00000380: 9bf7 8a3e 9dc7 85bd 46d3 2a3e 608f 793e
00000390: f8cd 10be 3134 8a3e c5d9 db3e e49b 4fbd
000003a0: 040e b1bc 1a9b 813e 9116 cdbe 6de7 3b3e
000003b0: a82a 91be 56b8 3d3e 34c7 603e 99ce 82be
000003c0: 72f6 53be f6b2 b6bd a17b bdbe 5835 90be
000003d0: 89e1 0cbd 411e 943d d042 02bf 1467 0d3e
000003e0: 7254 02be ec50 fc3d 8bc2 fc3d 2ae6 d93e
000003f0: d036 e3be 5cdf acbd 0739 9a3d 55e8 3abe

stem.0.bias f4 [64]
-0.2675781 0.050144956 -0.07303195 -0.26478317 0.154684 -0.021599887 -0.20756432 -0.10316884
0.12253883 0.26040456 0.32909057 0.31999105 0.32010263 0.283928 0.10671481 0.25651744
-0.049828883 0.2137834 -0.06970195 -0.062515326 0.24735022 0.31610462 0.26777685 -0.033050127
0.22892193 -0.35050783 0.14365385 -0.33386007 -0.13213219 0.11408615 0.187117 0.1262892
-0.3730245 -0.15799263 0.36131942 0.12238366 0.35492393 0.1669313 0.07603485 0.25478342
-0.36061022 -0.34207034 0.11193549 0.22111507 -0.1477906 -0.07921604 -0.07983242 0.039821547
0.14072634 0.22936243 -0.1298719 0.008099142 -0.29046246 -0.26405475 -0.08405937 0.27367002
-0.28601986 0.3782275 0.1434891 0.3025692 0.010544846 -0.14828601 0.11835574 -0.023324309
00000000: ffff 88be cc64 4d3d c691 95bd a991 87be
00000010: 7c65 1e3e 3ff2 b0bc be8b 54be 2f4a d3bd
00000020: a3f5 fa3d bf53 853e 8f7e a83e ded5 a33e
00000030: 7ee4 a33e 035f 913e 4b8d da3d 4156 833e
00000040: 5f19 4cbd 09ea 5a3e e5bf 8ebd 0908 80bd
00000050: 6049 7d3e 77d8 a13e 0c1a 893e 925f 07bd
00000060: 836a 6a3e c375 b3be ff19 133e b5ef aabe
00000070: a94d 07be 00a6 e93d 999b 3f3e f551 013e
00000080: 11fd bebe d2c8 21be dcfe b83e 49a4 fa3d
00000090: 97b8 b53e 0af0 2a3e 29b8 9b3d f972 823e
000000a0: e7a1 b8be d823 afbe 6f3e e53d fd6b 623e
000000b0: 6b56 17be 053c a2bd 2e7f a3bd eb1b 233d
000000c0: 911a 103e fcdd 6a3e 24fd 04be 44b2 043c
000000d0: 7fb7 94be 2f32 87be 5227 acbd 7a1e 8c3e
000000e0: 3271 92be 09a7 c13e ceee 123e 5aea 9a3e
000000f0: 4ac4 2c3c 4ad8 17be 7f64 f23d 9f12 bfbc

stem.1.weight f4 [64]
1.0565578 0.78777176 0.966712 0.9572555 0.95591444 0.9817216 0.813747 1.0225738
0.9134728 0.9784791 1.0099251 1.0144689 0.9502092 1.0181998 1.182503 0.85718924
0.8618497 0.86674225 1.0696887 0.77196527 0.9606429 0.9429727 0.9991161 1.080561
1.2337832 1.0366155 1.0790558 0.9255002 1.1441869 0.8665838 1.0237216 0.90769774
0.8399054 1.0165627 0.9376889 0.98547614 1.0249985 1.0442019 0.9121504 0.8635695
0.8687645 0.9474505 0.9339223 0.91979116 0.9582253 1.0161792 1.0818328 0.9832063
0.9040016 1.0196444 0.925133 1.0284823 1.1776593 0.9395303 0.91408575 0.8964153
0.9292055 1.032198 0.96397763 1.1081944 0.9561177 0.8194751 0.8770427 1.1084636
00000000: 493d 873f 69ab 493f 707a 773f b20e 753f
00000010: cfb6 743f 1b52 7b3f b951 503f b3e3 823f
00000020: 5ad9 693f 9b7d 7a3f 3a45 813f 1eda 813f
00000030: e940 733f 5f54 823f 425c 973f c170 5b3f
00000040: 2fa2 5c3f d2e2 5d3f 8feb 883f 849f 453f
00000050: b1ec 753f a966 713f 13c6 7f3f d34f 8a3f
00000060: 9cec 9d3f d1af 843f 801e 8a3f 95ed 6c3f
00000070: b774 923f 70d8 5d3f 4f09 833f e15e 683f
00000080: 0a04 573f ba1e 823f 610c 703f 2a48 7c3f
00000090: 2733 833f 68a8 853f b082 693f e412 5d3f
000000a0: 5a67 5e3f 1e8c 723f 8815 6f3f 6f77 6b3f
000000b0: 414e 753f 2912 823f 7f79 8a3f 68b3 7b3f
000000c0: a66c 673f b583 823f 84d5 6c3f 4fa5 833f
000000d0: 8abd 963f 0f85 703f 8601 6a3f 797b 653f
000000e0: 69e0 6d3f 101f 843f 3dc7 763f 50d9 8d3f
000000f0: 21c4 743f 1fc9 513f df85 603f 23e2 8d3f

stem.1.bias f4 [64]
0.050316162 -0.29239064 -0.04650177 -0.11803185 -0.1731924 -0.17999463 -0.22043572 0.019960636
-0.020475298 0.05838188 -0.060633175 -0.122597136 -0.19641608 -0.15274099 -0.009208689 -0.009693656
-0.24456929 -0.18061566 -0.011408124 -0.15837982 -0.120663054 -0.119659096 -0.06845209 -0.14740898
-0.18587103 0.083381966 -0.17306069 -0.08722948 0.07274978 -0.2061006 0.05457623 -0.08232197
-0.21766497 -0.2268554 -0.083762236 -0.079383925 -0.07634 -0.22732092 -0.054984435 -0.14588727
-0.1550109 -0.013320496 -0.11791934 -0.080714546 -0.19912693 -0.2794691 -0.1240842 -0.08560705
-0.14870644 -0.040251102 -0.24171244 -0.15514766 -0.030437535 0.00016512701 -0.13290723 0.028569551
0.105271265 -0.122056186 -0.19028112 0.033770237 -0.1114182 -0.17869331 -0.12839088 -0.019719036
00000000: 5218 4e3d 3ab4 95be a478 3ebd afba f1bd
00000010: 5959 31be 8350 38be e7b9 61be 7d84 a33c
00000020: d0bb a7bc d721 6f3d 7e5a 78bd 3514 fbbd
00000030: 4c21 49be 2268 1cbe 0be0 16bc 24d2 1ebc
00000040: 5f70 7abe 50f3 38be 24e9 3abc 522e 22be
00000050: 311e f7bd d40f f5bd 9c30 8cbd 61f2 16be
00000060: fa54 3ebe 2ac4 aa3d d236 31be 5fa5 b2bd
00000070: d6fd 943d 090c 53be 538b 5f3d 6c98 a8bd
00000080: 91e3 5ebe c84c 68be 898b abbd 0a94 a2bd
00000090: 2558 9cbd d1c6 68be 5c37 61bd 7963 15be
000000a0: 2dbb 1ebe 363e 5abc b27f f1bd ab4d a5bd
000000b0: eee7 4bbe 9316 8fbe db1f febd c052 afbd
000000c0: 8046 18be 57de 24bd 7783 77be 07df 1ebe
000000d0: 2358 f9bc f225 2d39 d518 08be b10a ea3c
000000e0: 7698 d73d 98f8 f9bd 0ed9 42be a952 0a3d
000000f0: 3a2f e4bd 61fb 36be e678 03be d189 a1bc

stem.1.running_mean f4 [64]
-0.38432178 0.2604814 -0.25701165 -0.48336715 0.17542192 -0.0014574997 -0.0059073875 -0.03329762
0.08224766 0.3445911 0.20500183 0.24138878 0.21809486 0.28598973 0.06743577 0.2113029
0.07629841 0.07607314 -0.034396686 -0.049030744 0.10690457 0.4147045 0.14914718 -0.041198898
0.13873221 -0.3613722 0.04799799 -0.5805236 -0.07267139 -0.017770186 0.20749022 -0.06789407
-0.17390236 -0.18004544 0.19001989 0.1645393 0.20841001 0.19187857 0.09740313 0.46014395
-0.43626368 -0.29123333 0.014371703 0.013179009 -0.15789539 -0.07480741 -0.1702011 -0.09785697
0.25121483 0.1924282 -0.262711 -0.13808416 -0.26723754 -0.14041382 -0.01979058 0.28616837
-0.3163529 0.43066356 0.10769896 0.3101112 -0.015999645 -0.25275367 0.15115468 -0.047869973
00000000: d3c5 c4be d15d 853e 0897 83be e67b f7be
00000010: cea1 333e 9309 bfba c292 c1bb 1663 08bd
00000020: 7671 a83d 3f6e b03e 00ec 513e 9f2e 773e
00000030: 4254 5f3e 3f6d 923e c41b 8a3d ca5f 583e
00000040: 5742 9c3d 3ccc 9b3d 8ae3 0cbd 76d4 48bd
00000050: c8f0 da3d 2654 d43e 0aba 183e 2dc0 28bd
00000060: d10f 0e3e c705 b9be 8a99 443d 329d 14bf
00000070: bdd4 94bd c892 91bc 5178 543e 0c0c 8bbd
00000080: 7613 32be d55d 38be 9394 423e fe7c 283e
00000090: 6f69 553e d17b 443e 4b7b c73d fd97 eb3e
000000a0: f45d dfbe 891c 95be 4b77 6b3c c5ec 573c
000000b0: 54af 21be a134 99bd 3249 2ebe 3c69 c8bd
000000c0: 3b9f 803e e60b 453e 0e82 86be ef65 0dbe
000000d0: 5cd3 88be a4c8 0fbe db1f a2bc a984 923e
000000e0: 02f9 a1be ef7f dc3e 4691 dc3d e5c6 9e3e
000000f0: b011 83bc ee68 81be 4bc8 1a3e 4e13 44bd

stem.1.running_var f4 [64]
0.021688264 0.0491335 0.0364923 0.05403816 0.005184786 0.0029174965 0.04338418 0.010245881
0.009266057 0.013318684 0.018063912 0.009473783 0.016080309 0.004505526 0.0053971326 0.008002308
0.019693634 0.023130339 0.0074815163 0.0045279074 0.024742346 0.015808564 0.017099302 0.004291355
0.0144101335 0.0058777886 0.012938325 0.06456709 0.009572414 0.020873915 0.004664867 0.043201678
0.043353807 0.0045277923 0.032885134 0.0075099925 0.026265852 0.005753784 0.0048475643 0.045813814
0.010305671 0.007236016 0.015558345 0.045933407 0.005134052 0.0054086545 0.012340588 0.021675766
0.016694335 0.006129712 0.023612587 0.027058652 0.0055105365 0.020165604 0.009654221 0.0035437923
0.004465423 0.008086896 0.00511591 0.003914818 0.0042167166 0.015318831 0.004310301 0.005459176
00000000: 96ab b13c 3540 493d f378 153d 1e57 5d3d
00000010: 23e5 a93b 7833 3f3b 9cb3 313d 57de 273c
00000020: a9d0 173c 9c36 5a3c c5fa 933c ed37 1b3c
00000030: daba 833c 17a3 933b 6eda b03b 1d1c 033c
00000040: 8b54 a13c d67b bd3c 8227 f53b d75e 943b
00000050: 76b0 ca3c f680 813c d613 8c3c 7f9e 8c3b
00000060: 7b18 6c3c 779a c03b 45fb 533c c03b 843d
00000070: 9dd5 1c3c c6ff aa3c bedb 983b 3ef4 303d
00000080: c393 313d e05d 943b 90b2 063d 6216 f63b
00000090: 7c2b d73c 3d8a bc3b 51d8 9e3b 44a7 3b3d
000000a0: 1ed9 283c 1a1c ed3b 6ee8 7e3c ab24 3c3d
000000b0: 8d3b a83b 153b b13b 2d30 4a3c 6091 b13c
000000c0: 8fc2 883c c0db c83b 2f6f c13c 1baa dd3c
000000d0: bb91 b43b 5632 a53c bd2c 1e3c f83e 683b
000000e0: af52 923b e67e 043c 5da3 a73b e047 803b
000000f0: 622c 8a3b d6fb 7a3c 6d3d 8d3b e3e2 b23b

res.0.block.0.weight f4 [64, 64, 3]
-0.0024516534 -0.059148256 -0.023306243 0.1052239 -0.054236103 -0.013816877 -0.008084348 -0.05884566
-0.029064985 -0.09258128 -0.11749021 -0.10136998 0.062425867 -0.046551194 -0.077934556 0.098416924
-0.08555972 0.021338463 0.07792284 0.028769422 -0.024515733 -0.03345675 -0.023710934 -0.112812735
0.05931412 0.09849183 0.07968923 0.27179638 -0.08266691 0.020172056 -0.1040673 -0.06418337
-0.14030878 -0.001642507 -0.09513217 -0.061785877 -0.0071599595 0.028101183 0.09649388 0.17415792
0.060078066 -0.05632861 0.08969399 -0.19901264 0.03820711 -0.060877446 -0.01569787 0.012517047
0.1402639 0.020601606 0.06422133 -0.07477233 -0.111761175 -0.06583046 0.18773513 0.09545899
-0.039145693 -0.001593833 -0.0008378277 0.06233839 -0.08729181 -0.18544117 -0.009854626 -0.05230992
-0.046411157 0.026873937 -0.07779624 -0.14738402 0.027694058 0.029668232 -0.019632926 0.02770811
-0.033852983 -0.025636207 0.14029925 0.08377486 0.07703466 0.077613465 0.0028317787 -0.064117685
-0.2155999 0.057314146 0.008293514 -0.015407477 0.19561402 -0.0775908 -0.027413018 -0.05360296
-0.07140347 0.117212206 0.048172165 -0.081489265 0.11672957 0.045018982 0.103892945 0.031533428
0.14271423 -0.01497073 -0.099096484 -0.008246441 0.09996705 -0.037450112 0.03849593 -0.13362816
-0.023246592 0.14538832 0.009156948 -0.12627776 -0.09907623 0.0049978294 -0.0758747 -0.0077505824
-0.060784753 -0.056647647 -0.03987722 -0.026074536 0.04671162 0.14450197 -0.066923924 -0.10688372
-0.028271936 -0.04920799 0.06592334 0.0017415481 -0.017103609 0.1387467 -0.045600094 -0.24455658
0.04432282 -0.11160527 -0.009162938 0.00859283 -0.025777504 0.048497636 0.048308816 0.01360844
-0.0442469 0.10695503 -0.15832092 0.008890414 -0.09798389 -0.061024707 -0.009333047 -0.11890788
-0.08677462 0.017411232 0.0154659115 -0.1573276 -0.049089696 -0.06368395 -0.06821419 -0.11094313
0.08428928 -0.08451312 -0.07887961 -0.06919824 0.08504046 -0.015065681 -0.0889493 0.114585005
-0.048499744 -0.10885216 0.023360265 0.053171087 0.07352182 0.0084340535 -0.047223594 -0.05838928
-0.047207274 0.030398594 0.087407075 -0.058517087 -0.03948445 -0.0070447642 0.05384229 -0.11912223
0.074465044 -0.06286272 0.1208353 0.0131984325 -0.04264652 0.10175673 0.099476516 -0.055851895
-0.04330618 0.067804195 0.11551882 0.04735393 -0.060573675 0.15262362 -0.040504027 -0.007577221
-0.03826435 -0.075553626 0.016141396 0.12513657 -0.017348472 -0.011843872 0.06694566 0.06229954
0.030342981 -0.12154925 -0.039680067 -0.19457376 0.068747595 -0.050188888 0.07117513 0.11210572
-0.10363877 -0.028935542 0.017804487 0.07863202 -0.004993602 0.008120597 0.013851165 -0.008593443
0.06770087 0.08799501 -0.01646641 0.25290465 0.0073905177 -0.078316174 -0.014863202 -0.0007751212
-0.08663827 -0.019272666 -0.18133697 -0.09315253 -0.06322563 0.067915685 -0.07001049 0.25335017
0.016946765 0.085751586 0.2087158 -0.11129806 0.0149468435 0.064048424 -0.10048037 -0.016500477
0.057117436 0.12736256 0.038613893 -0.05123926 -0.07802101 -0.030495726 0.20716348 0.13027671
-0.08988791 0.04366696 -0.08264052 0.11532842 -0.12475564 -0.119584486 -0.120263554 0.068047106
00000000: ebab 20bb 7145 72bd bcec bebc a17f d73d
00000010: ad26 5ebd 2f60 62bc 3774 04bc 2608 71bd
00000020: b119 eebc 419b bdbd b59e f0bd 109b cfbd
00000030: 44b2 7f3d 77ac 3ebd 279c 9fbd d08e c93d
00000040: ef39 afbd 00ce ae3c 0396 9f3d daad eb3c
00000050: 38d5 c8bc f209 09bd 6f3d c2bc 5d0a e7bd
00000060: 5df3 723d 16b6 c93d 1b34 a33d e528 8b3e
00000070: 454d a9bd de3f a53c 3d21 d5bd 9272 83bd
00000080: 1bad 0fbe 6449 d7ba a8d4 c2bd 3013 7dbd
00000090: 189e eabb 7434 e63c 959e c53d 7456 323e
000000a0: 6b14 763d d4b8 66bd 7cb1 b73d f8c9 4bbe
000000b0: 0f7f 1c3d a15a 79bd d298 80bc 4d14 4d3c
000000c0: 57a1 0f3e b3c4 a83c 7986 833d 3c22 99bd
000000d0: 0be3 e4bd 1fd2 86bd a33d 403e 0180 c33d
000000e0: 3c57 20bd 29e8 d0ba aaa1 5bba 8a56 7f3d
000000f0: 0cc6 b2bd 4ae4 3dbe 4c75 21bc ed42 56bd
00000100: a019 3ebd bb26 dc3c a353 9fbd d6eb 16be
00000110: a6de e23c cb0a f33c 3bd5 a0bc 1efc e23c
00000120: 6da9 0abd 0603 d2bc 9baa 0f3e 2792 ab3d
00000130: 59c4 9d3d cff3 9e3d 5d95 393b 2250 83bd
00000140: 38c6 5cbe 3dc2 6a3d 85e1 073c a46f 7cbc
00000150: 0b4f 483e ede7 9ebd 4491 e0bc c78e 5bbd
00000160: fc3b 92bd f40c f03d 2d50 453d d8e3 a6bd
00000170: ea0f ef3d d365 383d d3c5 d43d 3229 013d
00000180: ae23 123e cb47 75bc 19f3 cabd 151c 07bc
00000190: 86bb cc3d 4a65 19bd e9ad 1d3d d2d5 08be
000001a0: a36f bebc ade0 143e 0607 163c f54e 01be
000001b0: 7ae8 cabd d5c4 a33b 3264 9bbd 99f8 fdbb
000001c0: 6ff9 78bd 5d07 68bd 4c56 23bd 449a d5bc
000001d0: af54 3f3d 53f8 133e 690f 89bd dae5 dabd
000001e0: 8c9a e7bc 518e 49bd d102 873d a844 e43a
000001f0: de1c 8cbc 9d13 0e3e 2ac7 3abd 0a6d 7abe
00000200: d88b 353d 4e91 e4bd 2620 16bc f1c8 0c3c
00000210: 582b d3bc 75a5 463d 77df 453d eff5 5e3c
00000220: 3d3c 35bd 3d0b db3d e11e 22be 19a9 113c
00000230: c7ab c8bd 0bf5 79bd a3e9 18bc f985 f3bd
00000240: e4b6 b1bd 00a2 8e3c bc64 7d3c 7d1a 21be
00000250: 4712 49bd bb6c 82bd e2b3 8bbd 2736 e3bd
00000260: dc9f ac3d 3715 adbd a28b a1bd cfb7 8dbd
00000270: b129 ae3d 0cd6 76bc 0d2b b6bd 8bab ea3d
00000280: aba7 46bd e2ed debd 075e bf3c edc9 593d
00000290: 9c92 963d fc2e 0a3c 876d 41bd 9929 6fbd
000002a0: 6a5c 41bd 7906 f93c 7b02 b33d 9daf 6fbd
000002b0: 72ba 21bd c4d7 e6bb bc89 5c3d 5bf6 f3bd
000002c0: 2181 983d 2bbe 80bd 7f78 f73d 3d3e 583c
000002d0: 1eae 2ebd d565 d03d 58ba cb3d f5c4 64bd
000002e0: d261 31bd eddc 8a3d 2295 ec3d 32f6 413d
000002f0: 1a1c 78bd 5e49 1c3e 8de7 25bd 564a f8bb
00000300: 14bb 1cbd dcbb 9abd f63a 843c cd23 003e
00000310: 621e 8ebc cd0c 42bc ce1a 893d cd2d 7f3d
00000320: d891 f83c d0ee f8bd 9187 22bd 583e 47be
00000330: 8acb 8c3d dd92 4dbd 44c4 913d af97 e53d
00000340: 9040 d4bd 3b0a edbc b7da 913c d309 a13d
00000350: 5fa1 a3bb 410c 053c ffef 623c 83cb 0cbc
00000360: c1a6 8a3d ba36 b43d 91e4 86bc b87c 813e
00000370: 282c f23b 3b64 a0bd ca84 73bc 8131 4bba
00000380: 686f b1bd b6e1 9dbc 66b0 39be c1c6 bebd
00000390: 707c 81bd 6117 8b3d a961 8fbd 1db7 813e
000003a0: f1d3 8a3c 879e af3d 98b9 553e 3df0 e3bd
000003b0: 9be3 743c d22b 833d a7c8 cdbd 022c 87bc
000003c0: f9f3 693d 556b 023e 9a29 1e3d 42e0 51bd
000003d0: 7bc9 9fbd 2cd2 f9bc aa22 543e 4267 053e
000003e0: 2717 b8bd 20dc 323d 6f3f a9bd 4f31 ec3d
000003f0: e37f ffbd b6e8 f4bd bd4c f6bd 485c 8b3d

res.0.block.0.bias f4 [64]
-0.0019256005 0.028124701 -0.018451398 -0.06265871 -0.06769648 0.06864927 0.04924385 -0.006207267
-0.05845554 0.0668556 0.031312652 0.03736716 0.065562166 -0.064916275 -0.054257706 -0.004387987
-0.046529442 0.010584197 0.004354941 -0.06415473 -0.022822373 -0.065928966 -0.033398446 -0.026170118
-0.045756795 -0.044187803 0.005968089 0.04804912 0.03147766 -0.03926999 -0.00380414 0.026606588
0.05666939 0.004657944 -0.017760595 0.057034783 0.022196833 -0.070943944 0.038918875 -0.061062407
0.0053509194 -0.02096872 -0.021104677 0.027418623 -0.04193527 0.06923761 -0.009693931 0.027916119
-0.010713609 0.04052847 0.002201018 -0.06977081 -0.02918423 -0.025807118 -0.049062222 0.04859689
0.060469788 -0.011688976 -0.030709464 -0.020236548 0.00615749 -0.018838832 -0.06395723 -0.060171343
00000000: 6e64 fcba c665 e63c 6327 97bc 3653 80bd
00000010: 74a4 8abd fd97 8c3d ebb3 493d 5466 cbbb
00000020: 146f 6fbd 97eb 883d b241 003d 4f0e 193d
00000030: 7545 863d d3f2 84bd 543d 5ebd 1ac9 8fbb
00000040: a895 3ebd 5769 2d3c e5b3 8e3b 8e63 83bd
00000050: fcf5 babc c405 87bd cfcc 08bd b762 d6bc
00000060: 7a6b 3bbd 45fe 34bd f68f c33b 27cf 443d
00000070: b8ee 003d 92d9 20bd e14e 79bb 0ff6 d93c
00000080: 2a1e 683d aba1 983b ab7e 91bc 4e9d 693d
00000090: 22d6 b53c 0f4b 91bd 6669 1f3d 931c 7abd
000000a0: c456 af3b 98c6 abbc b7e3 acbc 059d e03c
000000b0: 51c4 2bbd 73cc 8d3d 4bd3 1ebc 58b0 e43c
000000c0: 2288 2fbc 2e01 263d f43e 103b 00e4 8ebd
000000d0: c413 efbc 7369 d3bc 78f5 48bd 880d 473d
000000e0: 2baf 773d 1e83 3fbc 6a92 fbbc 1ec7 a5bc
000000f0: c5c4 c93b e553 9abc 02fc 82bd 3a76 76bd

res.0.block.1.weight f4 [64]
0.83859766 0.8505804 1.0571799 0.6370919 0.9560377 1.0623655 0.91637784 0.9346638
1.2118708 1.0418376 0.9016371 0.99464834 1.1122584 0.9131386 0.968303 0.9979157
0.88286036 0.8713023 0.8912451 0.8789797 1.0171 0.8494271 1.0116094 1.0643706
1.005527 1.1713877 0.9638652 1.1067265 0.90302 0.905151 1.0781324 1.2144475
1.0106064 0.9892978 1.0058925 0.88102657 0.9358069 1.0163023 0.9807058 0.9462192
1.0921516 1.0678458 1.1082984 0.8882802 0.99310553 0.8212954 1.0672586 1.016454
0.915293 1.1180762 1.033667 1.1586959 1.0349379 1.0191846 0.9405 0.7973984
0.7885763 0.96552867 0.9334148 1.1583282 1.0257868 1.1547434 0.912709 0.89536715
00000000: 56ae 563f a3bf 593f ac51 873f 7418 233f
00000010: e3be 743f 98fb 873f bd97 6a3f 2046 6f3f
00000020: 951e 9b3f ef5a 853f b0d1 663f 46a1 7e3f
00000030: 7c5e 8e3f 74c3 693f b5e2 773f 6777 7f3f
00000040: 2303 623f ab0d 5f3f a428 643f d004 613f
00000050: 5530 823f 0e74 593f 6b7c 813f 4c3d 883f
00000060: 1cb5 803f 08f0 953f dfbf 763f 37a9 8d3f
00000070: 522c 673f fab7 673f 3e00 8a3f 0473 9b3f
00000080: 8d5b 813f 9f42 7d3f 16c1 803f f58a 613f
00000090: 0a91 6f3f 3216 823f 890f 7b3f 6c3b 723f
000000a0: a0cb 8b3f 2caf 883f b9dc 8d3f 5566 633f
000000b0: 2a3c 7e3f 6a40 523f ee9b 883f 2a1b 823f
000000c0: a450 6a3f 1f1d 8f3f 334f 843f 2650 943f
000000d0: d878 843f a474 823f 9cc4 703f 4d22 4c3f
000000e0: 23e0 493f e32c 773f 46f4 6e3f 1944 943f
000000f0: fb4c 833f a2ce 933f 4ca7 693f c836 653f

res.0.block.1.bias f4 [64]
-0.0014601672 -0.032206733 0.12209527 -0.10371825 -0.0771684 0.024157897 -0.061938714 -0.11899044
0.30010924 0.052130852 0.00271225 -0.043236077 0.010693911 0.052355815 -0.08316935 -0.10840708
-0.07844543 -0.12827933 0.03759953 -0.18137541 -0.06025035 -0.09465543 -0.038784992 -0.024612637
-0.040266223 -0.05667553 -0.1842327 -0.084170334 -0.19841291 -0.17091626 -0.029920356 0.046338566
-0.08220314 -0.0044253212 -0.019282935 -0.25374126 -0.09850554 -0.14503625 -0.038475253 -0.20424238
0.055918593 0.11102198 0.20881312 -0.11766015 -0.042454816 -0.21644676 -0.117075264 -0.10194468
-0.055934325 0.22474153 -0.052145626 0.07474417 -0.2801169 -0.036961194 -0.12744078 -0.18708448
-0.20576936 -0.17983307 0.021524401 -0.08731691 -0.12522785 -0.032154053 0.008195986 -0.2089455
00000000: 1563 bfba 35eb 03bd 160d fa3d 3c6a d4bd
00000010: 770a 9ebd c8e6 c53c 73b3 7dbd 43b1 f3bd
00000020: eba7 993e 2987 553d 01c0 313b 5018 31bd
00000030: 8435 2f3c 0d73 563d b154 aabd 8804 debd
00000040: ffa7 a0bd a85b 03be f701 1a3d 7aba 39be
00000050: 12c9 76bd b5da c1bd 03dd 1ebd 71a0 c9bc
00000060: 32ee 24bd 9a24 68bd 7fa7 3cbe 7f61 acbd
00000070: c12c 4bbe ac04 2fbe 891b f5bc 82cd 3d3d
00000080: 1f5a a8bd 4902 91bb 3ff7 9dbc 60ea 81be
00000090: 46bd c9bd 6284 14be 3a98 1dbd ea24 51be
000000a0: e50a 653d 7e5f e33d 1bd3 553e cef7 f0bd
000000b0: 1ae5 2dbd 38a4 5dbe 28c5 efbd 5fc8 d0bd
000000c0: 641b 65bd a522 663e a796 55bd 7913 993d
000000d0: 7b6b 8fbe 9f64 17bd d67f 02be 1393 3fbe
000000e0: 34b5 52be 2926 38be f153 b03c 35d3 b2bd
000000f0: bb3b 00be f8b3 03bd 7548 063c cff5 55be

res.0.block.1.running_mean f4 [64]
-0.56462973 0.9238213 -0.61005193 -0.48307562 -2.020038 0.30428103 -0.9357495 -0.3922452
-2.993777 -0.7196692 -0.34617734 0.49803904 0.19030072 -1.7861589 -1.0123005 3.4876852
-0.77307165 1.5121146 -0.34558412 1.8135023 0.7064711 1.3439332 0.32933006 -0.46792814
0.6441088 -0.57576895 1.8703055 1.9033216 2.0795653 -1.3993028 0.43051735 -1.0967181
1.8901986 0.03505404 -2.4146855 3.2621567 -2.2740798 1.7378414 -0.91335124 -1.7600251
-0.58737767 -1.9280967 -3.2484899 0.25089142 -1.8963802 2.3760052 3.6717844 1.7524555
1.2281812 -2.7927842 1.0204012 0.06761406 2.307798 0.600925 0.105499215 -1.4040529
0.8628488 2.480311 0.15702276 0.012878058 3.9793055 0.23155278 -1.8317417 -1.0801703
00000000: 938b 10bf 8d7f 6c3f 5d2c 1cbf b055 f7be
00000010: 4d48 01c0 b9ca 9b3e 478d 6fbf 5dd4 c8be
00000020: 0b9a 3fc0 3e3c 38bf 283e b1be f9fe fe3e
00000030: 31de 423e dba0 e4bf 1093 81bf 3c36 5f40
00000040: 06e8 45bf f98c c13f 67f0 b0be d820 e83f
00000050: 4adb 343f 0106 ac3f f39d a83e 4794 efbe
00000060: 50e4 243f 9865 13bf 2c66 ef3f 0ba0 f33f
00000070: 9917 0540 5b1c b3bf c56c dc3e 4261 8cbf
00000080: 07f2 f13f d394 0f3d 358a 1ac0 2dc7 5040
00000090: 868a 11c0 9671 de3f 63d1 69bf 8148 e1bf
000000a0: 625e 16bf dfcb f6bf 42e7 4fc0 d774 803e
000000b0: 96bc f2bf 7810 1840 84fe 6a40 7650 e03f
000000c0: 0b35 9d3f fabc 32c0 829c 823f 3e79 8a3d
000000d0: f6b2 1340 39d6 193f f90f d83d 01b8 b3bf
000000e0: a9e3 5c3f 6abd 1e40 93ca 203e 7dfe 523c
000000f0: f1ac 7e40 2c1c 6d3e 8376 eabf 0543 8abf

res.0.block.1.running_var f4 [64]
2.425318 4.64215 2.4411755 2.7402585 1.6347898 2.9483953 1.4835579 1.5445446
2.2814865 2.3901236 2.6052868 1.717743 2.531575 2.2199352 1.2137722 4.0539336
3.564133 2.3072622 1.6891235 2.6085694 2.131648 2.7274857 1.1241289 2.3166616
1.819653 0.93523055 3.5693843 1.9920096 2.3656101 1.4448701 1.441879 2.0131721
1.9608115 1.7660682 2.9150553 3.8981085 2.102935 5.9109926 1.7603419 1.5931338
2.8218746 7.049371 5.6480074 2.489953 1.1934754 3.1543615 4.2498636 1.9325252
4.1366487 4.7941875 1.9966923 3.798393 3.0112832 1.079907 1.5470207 1.4862947
3.901989 3.325631 2.5809815 2.1084342 7.9094405 1.2596864 2.1258273 1.2953336
00000000: 6938 1b40 7e8c 9440 383c 1c40 6560 2f40
00000010: cb40 d13f 82b2 3c40 3ae5 bd3f a3b3 c53f
00000020: e003 1240 c9f7 1840 05bd 2640 01df db3f
00000030: 5305 2240 6b13 0e40 e35c 9b3f d3b9 8140
00000040: c11a 6440 2faa 1340 3335 d83f cdf2 2640
00000050: ec6c 0840 208f 2e40 75e3 8f3f 2f44 1440
00000060: 64ea e83f 456b 6f3f cb70 6440 2cfa fe3f
00000070: 2866 1740 81f1 b83f 7e8f b83f d0d7 0040
00000080: dffb fa3f 860e e23f 4490 3a40 9c7a 7940
00000090: 7d96 0640 da26 bd40 e252 e13f cfeb cb3f
000000a0: 9899 3440 7294 e140 7abc b440 645b 1f40
000000b0: cdc3 983f 0fe1 4940 e2fe 8740 fc5c f73f
000000c0: 6d5f 8440 fc69 9940 9d93 ff3f df18 7340
000000d0: ddb8 4040 643a 8a3f c604 c63f e83e be3f
000000e0: 30ba 7940 23d7 5440 cd2e 2540 96f0 0640
000000f0: 231a fd40 673d a13f 8e0d 0840 7ecd a53f

res.0.block.3.weight f4 [64, 64, 3]
0.088283464 -0.014523442 -0.1087321 -0.028216926 0.102637336 -0.010554365 -0.04117732 -0.034245897
-0.020543098 -0.046789616 0.079010196 0.11152502 -0.07999483 -0.0067361933 0.03175797 0.05801035
0.031456687 -0.015731644 -0.024937551 -0.041970234 0.08689831 0.08482972 0.14900877 -0.012912601
-0.09514529 -0.17813829 -0.30704182 0.04839879 -0.004291067 -0.037652213 -0.035131067 -0.0012705921
0.055079997 0.02901408 0.003226437 0.08623394 0.006680787 0.031764016 0.2694757 -0.034924347
-0.02725314 0.03702074 -0.09505938 -0.046305206 0.21707177 -0.061032504 -0.023781238 -0.09203723
0.036442075 -0.010860519 -0.14068344 0.003372023 0.05231375 -0.095470816 -0.0128961615 0.055418186
0.010819822 -0.02668119 0.018175378 0.14190312 0.07682592 0.060328595 -0.09477465 0.17913887
-0.026297191 0.0804201 -0.047285575 -0.03726639 -0.030100582 -0.06697254 -0.1135157 0.034064822
-0.09809616 -0.022509119 0.13781437 0.10892166 0.022542575 -0.10978937 -0.018658672 -0.032235548
0.06560318 0.21157646 0.14732644 0.1903211 0.11753136 0.07970475 0.0050303964 -0.11184662
0.026080789 -0.0075167553 0.05114998 0.0041900296 -0.02017347 -0.07823025 -0.18282916 -0.23247755
0.04776436 0.028568236 -0.038701635 0.121617116 0.03930289 -0.125703 0.02970617 0.01901291
-0.17507991 -0.09655237 -0.010305711 -0.021882975 -0.06772816 0.005200514 0.022843787 0.1176721
0.091507085 0.16234486 -0.06790127 0.06665776 0.1548923 -0.10165166 -0.09357821 0.24880825
0.0021527268 -0.014046595 0.1575496 0.0072336537 -0.027875237 -0.089655794 -0.18806389 -0.13411206
-0.16798419 -0.015333892 -0.046899717 -0.10215259 0.18106894 0.044599235 -0.12226102 0.03850124
0.14319897 0.094613425 0.13348104 0.061168432 0.09904643 0.17528708 -0.0099812215 0.09765376
0.080876864 -0.023643889 -0.107254446 -0.16785663 -0.07307851 -0.20375152 0.07103616 0.17358749
0.05043393 -0.14091069 -0.013045523 0.24929792 -0.064077765 0.0014546936 0.17091654 0.01578125
0.03084427 -0.07696023 0.13873626 0.053180423 -0.024980966 0.11623437 0.06785628 -0.06668412
0.09597805 -0.068886 -0.023055486 0.027583387 0.065449156 0.027208855 -0.077681296 0.058560327
0.18265411 -0.028040774 0.0932165 0.07316489 0.01041223 0.09097958 0.04000612 0.0534302
-0.034177803 -0.19215083 -0.16755928 -0.0086062215 -0.116551064 -0.045913946 -0.042171795 -0.12617312
-0.057811372 -0.08727773 0.019964738 0.024046898 -0.06762002 0.016553503 -0.0111699 0.01032226
-0.05683691 -0.11690561 -0.0801779 -0.022380618 -0.02677467 -0.03128302 0.12538216 0.12037547
0.078004576 0.0853029 0.03026088 0.021233639 -0.0014950759 -0.10889036 -0.116151616 -0.07435692
0.010068917 0.011037298 0.12390752 0.052533817 0.008175465 0.06912009 0.013703647 -0.0036697413
0.058867637 0.0016493755 -0.060007654 0.034147426 0.029314518 -0.05235054 0.031174876 0.0109182205
0.11847043 0.033152945 -0.046417363 0.025220044 -0.02506485 0.07851667 -0.003623289 -0.009634139
-0.0047554467 0.007004337 -0.009547399 0.108977176 0.04964971 0.07521191 -0.094115876 0.15127881
0.04783721 -0.0035142754 0.035798796 -0.062351704 -0.15371108 0.039366793 0.1280866 -0.11682311
00000000: f6cd b43d bbf3 6dbc efae debd 2f27 e7bc
00000010: 8633 d23d 37ec 2cbc 8da9 28bd 6d45 0cbd
00000020: 004a a8bc 78a6 3fbd 19d0 a13d 3b67 e43d
00000030: 54d4 a3bd 49bb dcbb a514 023d 439c 6d3d
00000040: bad8 003d a6df 80bc d649 ccbc fbe8 2bbd
00000050: bef7 b13d 34bb ad3d c195 183e 608f 53bc
00000060: 89db c2bd e269 36be 9634 9dbe cf3d 463d
00000070: 149c 8cbb 3539 1abd 98e5 0fbd ff89 a6ba
00000080: 909b 613d f0ae ed3c a172 533b 6c9b b03d
00000090: 81ea da3b fc1a 023d b8f8 893e d50c 0fbd
000000a0: fa41 dfbc 0fa3 173d 7eae c2bd 87aa 3dbd
000000b0: 1048 5e3e 38fd 79bd dfd0 c2bc 047e bcbd
000000c0: 4944 153d 51f0 31bc 520f 10be 29fd 5c3b
000000d0: f146 563d 3486 c3bd 6c4a 53bc 2efe 623d
000000e0: 9f45 313c 8392 dabc 88e4 943c 0d4f 113e
000000f0: e856 9d3d 1e1b 773d 3619 c2bd 2e70 373e
00000100: 356d d7bc 4bb3 a43d 85ae 41bd a4a4 18bd
00000110: 7f95 f6bc e628 89bd eb7a e8bd 8e87 0b3d
00000120: a4e6 c8bd 0b65 b8bc 361f 0d3e 5212 df3d
00000130: 35ab b83c 40d9 e0bd 12da 98bc 6c09 04bd
00000140: f65a 863d 80a7 583e bedc 163e 89e3 423e
00000150: 48b4 f03d 3e3c a33d 06d6 a43b d70f e5bd
00000160: 61a7 d53c 1d4f f6bb a482 513d 844c 893b
00000170: d542 a5bc 2e37 a0bd 9137 3bbe 980e 6ebe
00000180: 90a4 433d ef07 ea3c 9b85 1ebd 6512 f93d
00000190: 11fc 203d 4ab8 00be 5b5a f33c f6c0 9b3c
000001a0: 2648 33be 40bd c5bd 49d9 28bc ed43 b3bc
000001b0: 10b5 8abd 1369 aa3b e522 bb3c 12fe f03d
000001c0: 1168 bb3d bb3d 263e d20f 8bbd dd83 883d
000001d0: 169c 1e3e bf2e d0bd efa5 bfbd 97c7 7e3e
000001e0: c314 0d3b b123 66bc af54 213e 4908 ed3b
000001f0: 9c5a e4bc 759d b7bd d293 40be ac54 09be
00000200: 0c04 2cbe 013b 7bbc eb19 40bd 6135 d1bd
00000210: 236a 393e b0ad 363d fc63 fabd 7ab3 1d3d
00000220: c0a2 123e afc4 c13d 41af 083e c08b 7a3d
00000230: dbd8 ca3d 757e 333e 4788 23bc b2fe c73d
00000240: c5a2 a53d d4b0 c1bc 38a8 dbbd 9ce2 2bbe
00000250: 30aa 95bd 3da4 50be 687b 913d ebc0 313e
00000260: cf93 4e3d e44a 10be e4bc 55bc f447 7f3e
00000270: 343b 83bd 6bab be3a bf04 2f3e ae47 813c
00000280: 1fad fc3c 539d 9dbd e110 0e3e b7d3 593d
00000290: e2a4 ccbc 490c ee3d 3cf8 8a3d af91 88bd
000002a0: 2490 c43d 1a14 8dbd dcde bcbc 8ef6 e13c
000002b0: 350a 863d 1be5 de3c 5f17 9fbd f4dc 6f3d
000002c0: ae09 3b3e c4b5 e5bc 4be8 be3d 79d7 953d
000002d0: 0f98 2a3c 8153 ba3d 75dd 233d a0d9 5a3d
000002e0: 06fe 0bbd 30c3 44be a994 2bbe 1c01 0dbc
000002f0: 53b2 eebd 4310 3cbd 55bc 2cbd 8733 01be
00000300: 9ecb 6cbd abbe b2bd 178d a33c 00fe c43c
00000310: 5d7c 8abd 369b 873c f501 37bc b21e 293c
00000320: d2cd 68bd 356c efbd 5034 a4bd 8f57 b7bc
00000330: 8e56 dbbc a022 00bd 2e64 003e 6a87 f63d
00000340: ddc0 9f3d 49b3 ae3d aae5 f73c 2bf2 ad3c
00000350: 6cf6 c3ba e901 dfbd e6e0 edbd 7148 98bd
00000360: 19f8 243c c8d5 343c 3ac3 fd3d b32d 573d
00000370: 63f2 053c d58e 8d3d 4385 603c 0b80 70bb
00000380: 311f 713d dc2f d83a 96ca 75bd 2cde 0b3d
00000390: 0025 f03c 856d 56bd 7462 ff3c 56e2 323c
000003a0: a0a0 f23d 62cb 073d 2220 3ebd 449a ce3c
000003b0: cd54 cdbc 59cd a03d b474 6dbb 82d8 1dbc
000003c0: 94d3 9bbb a384 e53b b26c 1cbc 6d2f df3d
000003d0: 7f5d 4b3d b408 9a3d d3bf c0bd d5e8 1a3e
000003e0: f3f0 433d c24f 66bb c2a1 123d 8064 7fbd
000003f0: 7066 1dbe 133f 213d 2229 033e f440 efbd

res.0.block.3.bias f4 [64]
0.045256276 -0.06946922 0.0042502075 -0.0066905515 -0.05248359 0.053516902 -0.02932063 -0.050088797
0.059201535 0.015062368 -0.0045690797 0.048328124 -0.06318775 -0.03765531 -0.017213363 0.005628794
0.028934386 0.0130162565 0.07157798 -0.054343276 -0.059794057 0.0007342537 -0.014703132 0.039915584
0.05092824 0.041753523 0.0015232224 -0.047080003 0.06381132 0.043611396 -0.0040621283 0.043767985
-0.05883011 -0.0140820425 0.040923055 0.05169489 0.0064636553 0.04941296 -0.03801495 0.0051361024
0.045273066 -0.037873648 -0.03725122 -0.0006984828 -0.056343004 -0.03994406 -0.035185013 0.045950945
0.039237138 0.028136564 -0.011565016 0.02373023 0.0017701534 0.009543661 0.072094135 0.012735337
-0.005821744 0.066744305 -0.031624373 0.043503877 0.026705131 -0.034651235 0.06979007 0.051583413
00000000: a55e 393d e145 8ebd 5345 8b3b 6a3c dbbb
00000010: 08f9 56bd 8a34 5b3d d131 f0bc e929 4dbd
00000020: 4f7d 723d 26c8 763c 38b8 95bb b6f3 453d
00000030: 9468 81bd 743c 1abd 0a03 8dbc bf71 b83b
00000040: ce07 ed3c 2342 553c 7a97 923d 0e97 5ebd
00000050: 9dea 74bd ef7a 403a 68e5 70bc 867e 233d
00000060: 219a 503d be05 2b3d dda6 c73a f6d6 40bd
00000070: 82af 823d dda1 323d 9a1b 85bb 0f46 333d
00000080: d7f7 70bd 5eb8 66bc ef9e 273d 05be 533d
00000090: 12cd d33b 3e65 4a3d 90b5 1bbd c04c a83b
000000a0: 4070 393d 6621 1bbd bc94 18bd 631a 37ba
000000b0: ecc7 66bd 629c 23bd 291e 10bd 0f37 3c3d
000000c0: 1fb7 203d a77e e63c 317b 3dbc e665 c23c
000000d0: 7e04 e83a 045d 1c3c 17a6 933d e0a7 503c
000000e0: 54c4 bebb 3db1 883d 8f88 01bd 1f31 323d
000000f0: b8c4 da3c 74ee 0dbd 19ee 8e3d 2149 533d

res.0.block.4.weight f4 [64]
0.8986138 0.9973915 1.0375842 0.9232769 1.2047583 0.9742607 1.0191573 0.97344637
0.7583705 0.8454553 0.9697792 0.87073916 0.91726846 0.86647165 0.7984187 0.88057774
1.0565963 0.9282849 0.90086323 0.808294 0.68836033 1.0738728 1.067446 0.6144541
0.93186945 0.8400076 1.0056373 0.8087663 0.9824112 0.9726874 0.8411489 1.0220401
1.1472281 1.0586094 1.1840025 0.96572083 1.0311892 0.93406355 0.96315885 0.79721785
0.87828964 0.8527629 0.8741702 0.9707297 0.9066604 0.889311 0.7637942 0.8664623
0.80454236 0.81379694 0.90932596 0.97679764 0.95850056 0.9692162 0.89411163 0.8262758
0.9714105 0.9249637 0.8875293 0.9377576 0.9507795 1.0230606 0.763073 0.8366164
00000000: 8e0b 663f 0d55 7f3f 8fcf 843f e05b 6c3f
00000010: 8535 9a3f 2669 793f bf73 823f c833 793f
00000020: 9224 423f c26f 583f 7343 783f c3e8 5e3f
00000030: 1bd2 6a3f 16d1 5d3f 2b65 4c3f 8b6d 613f
00000040: 8c3e 873f 14a4 6d3f f99e 663f 5bec 4e3f
00000050: 6238 303f aa74 893f 12a2 883f dd4c 1d3f
00000060: ff8e 6e3f bd0a 573f b9b8 803f 4f0b 4f3f
00000070: 4d7f 7b3f 0b02 793f 8955 573f 36d2 823f
00000080: 5fd8 923f 8380 873f 658d 973f 7b39 773f
00000090: 02fe 833f ca1e 6f3f 9491 763f 7816 4c3f
000000a0: 97d7 603f ab4e 5a3f 9ec9 5f3f be81 783f
000000b0: e51a 683f e3a9 633f 0488 433f 79d0 5d3f
000000c0: 7df6 4d3f ff54 503f 96c9 683f 690f 7a3f
000000d0: 4b60 753f 8e1e 783f 80e4 643f d086 533f
000000e0: 5cae 783f 6cca 6c3f 1f35 633f e210 703f
000000f0: 4966 733f a6f3 823f c158 433f 7e2c 563f

res.0.block.4.bias f4 [64]
-0.0806516 -0.11219089 0.0748626 -0.06291635 -0.3997744 -0.21784271 0.117200926 0.15731567
-0.07755512 0.17087333 -0.109954946 -0.1786117 -0.03168571 -0.30437818 -0.070013955 -0.15927425
-0.0054787537 -0.085790634 -0.052499685 -0.05240165 -0.19837582 0.09671375 0.04367232 -0.20860465
-0.11001525 0.012897851 -0.037580177 -0.13693434 -0.04695443 -0.11003722 -0.2027187 -0.17902404
0.07237048 0.0016495369 0.11778153 0.03927107 0.031922758 -0.16230723 -0.012357453 0.008151519
-0.10180713 -0.09457331 -0.12322547 -0.0804918 -0.13209617 -0.24899095 -0.17707677 -0.16706724
-0.009429128 -0.07843304 -0.13375504 -0.09284281 -0.11781958 0.29509473 0.02918285 0.035864033
-0.04379295 -0.10680147 -0.118796214 -0.09747744 -0.13746406 0.042601388 -0.076750964 -0.062555134
00000000: ab2c a5bd 56c4 e5bd 9051 993d 4ada 80bd
00000010: 3baf ccbe 2912 5fbe 0a07 f03d 5c17 213e
00000020: 38d5 9ebd 6bf9 2e3e 0f30 e1bd fce5 36be
00000030: e0c8 01bd 75d7 9bbe 7a63 8fbd ca18 23be
00000040: 1e87 b3bb 00b3 afbd e909 57bd 1da3 56bd
00000050: 0823 4bbe dc11 c63d bfe1 323d 759c 55be
00000060: ad4f e1bd 8251 533c aced 19bd 8438 0cbe
00000070: 4a53 40bd 325b e1bd 7e95 4fbe 1452 37be
00000080: f936 943d 4635 d83a 7137 f13d b4da 203d
00000090: 70c1 023d de33 26be ea76 4abc f38d 053c
000000a0: 4280 d0bd a7af c1bd a35d fcbd e3d8 a4bd
000000b0: 3844 07be 7cf7 7ebe 9d53 35be ad13 2bbe
000000c0: a17c 1abc 80a1 a0bd 15f7 08be 5f24 bebd
000000d0: 644b f1bd a816 973e df10 ef3c 2ae6 123d
000000e0: 3d60 33bd bbba dabd 6e4b f3bd 41a2 c7bd
000000f0: 61c3 0cbe cb7e 2e3d 9c2f 9dbd e81c 80bd

res.0.block.4.running_mean f4 [64]
-0.0061912686 0.29067305 -1.5202129 -1.050515 -1.0501922 2.0478313 -2.284085 -2.5568798
-0.11871723 -3.794298 -0.08816577 0.5188588 0.7011276 0.042757336 -2.045065 -3.3623135
-0.21529265 0.15313472 0.44462883 -1.6424919 2.1000516 -2.864617 -1.2277788 -1.486039
1.1719563 -1.075222 -0.13129133 -0.8330043 -0.39786837 -0.4717121 0.09165797 3.6142828
0.25129437 -2.10812 0.41750112 -2.0187662 -0.64646125 1.6995488 -1.3950275 -1.562332
-1.0000306 -0.08692024 1.7963771 -0.6212131 -0.62287414 1.08373 -0.7797929 0.7588137
-1.8803285 0.120633475 -1.564091 1.4006379 0.8484008 -3.9398744 -2.7454739 -1.4618089
-1.6307473 0.09085209 0.45909643 -1.5338637 1.0930576 -2.788691 -2.2411785 -0.68095064
00000000: 20e0 cabb 19d3 943e 5696 c2bf 4777 86bf
00000010: b36c 86bf ab0f 0340 732e 12c0 eba3 23c0
00000020: 0522 f3bd c7d5 72c0 4190 b4bd eed3 043f
00000030: 197d 333f 5122 2f3d 58e2 02c0 2530 57c0
00000040: ad75 5cbe 59cf 1c3e 64a6 e33e 2d3d d2bf
00000050: 3f67 0640 e355 37c0 db27 9dbf 8736 bebf
00000060: aa02 963f e0a0 89bf 3c71 06be c53f 55bf
00000070: 67b5 cbbe 4084 f1be 2cb7 bb3d 6950 6740
00000080: a8a9 803e 70eb 06c0 b5c2 d53e 7733 01c0
00000090: 7c7e 25bf d18a d93f 4390 b2bf 7ffa c7bf
000000a0: 0101 80bf 3d03 b2bd afef e53f d207 1fbf
000000b0: ae74 1fbf aab7 8a3f 82a0 47bf 9d41 423f
000000c0: 9bae f0bf af0e f73d 2234 c8bf 1a48 b33f
000000d0: cb30 593f e726 7cc0 d8b5 2fc0 8e1c bbbf
000000e0: 54bc d0bf a910 ba3d b00e eb3e a555 c4bf
000000f0: 50e9 8b3f ea79 32c0 786f 0fc0 c852 2ebf

res.0.block.4.running_var f4 [64]
2.549755 4.381098 2.5277364 2.135483 0.81993395 4.987618 1.9673152 3.8750556
2.1765816 9.397361 3.4579818 1.799652 3.008587 1.7804642 3.9526992 2.0430148
3.6047213 2.5360265 2.4544394 3.0032747 4.625173 3.1417925 4.2499166 2.0804818
5.189167 4.954196 2.1781416 2.041135 3.7734106 2.3654482 2.1580467 5.039683
3.7299438 1.9356579 3.839931 3.2343385 1.6104344 8.9511595 2.509084 6.5372095
2.781254 2.9746487 2.4631124 4.2708693 1.5062661 6.068663 3.470812 1.9747785
2.8001685 1.4244952 1.146081 5.605227 10.013261 5.840602 2.0539324 6.427301
3.7388906 5.073682 2.3038113 1.6924049 4.597476 2.589933 1.4616066 2.719377
00000000: 302f 2340 f431 8c40 6fc6 2140 c1ab 0840
00000010: 31e7 513f 919a 9f40 fcd0 fb3f e900 7840
00000020: 1d4d 0b40 975b 1641 934f 5d40 ff5a e63f
00000030: b08c 4040 40e6 e33f 06f9 7c40 c1c0 0240
00000040: c1b3 6640 424e 2240 8915 1d40 a735 4040
00000050: 6b01 9440 2113 4940 51ff 8740 9d26 0540
00000060: a80d a640 c688 9e40 ac66 0b40 f5a1 0240
00000070: 8f7f 7140 8163 1740 701d 0a40 1545 a140
00000080: 66b7 6e40 a3c3 f73f 6ec1 7540 67ff 4e40
00000090: b722 ce3f f337 0f41 d594 2040 d230 d140
000000a0: 1100 3240 a560 3e40 a2a3 1d40 f6aa 8840
000000b0: 54cd c03f 7d32 c240 c921 5e40 8bc5 fc3f
000000c0: f635 3340 dc55 b63f c8b2 923f 055e b340
000000d0: 5136 2041 36e6 ba40 a173 0340 73ac cd40
000000e0: fc49 6f40 9a5b a240 a571 1340 b9a0 d83f
000000f0: 861e 9340 76c1 2540 ed15 bb3f 460a 2e40

res.1.block.0.weight f4 [64, 64, 3]
-0.049157128 -0.089891575 0.09875837 -0.02450253 -0.018640265 -0.07672167 -0.07222516 0.046402566
-0.055238202 0.050233386 -0.036416553 -0.055124395 -0.035532415 -0.018163456 0.17144263 -0.058621053
-0.07824882 0.08791208 0.20162174 0.037639625 -0.08732145 0.10143339 0.0751324 0.027074711
-0.069864325 -0.038622063 0.03453039 0.05573567 -0.025468744 -0.07882965 0.102826804 0.06498617
0.064469844 -0.08736085 -0.092210606 -0.0070558526 -0.040970977 -0.02009032 -0.07169857 0.06679037
0.06949798 -0.055999078 0.077784166 -0.029921126 0.11067298 0.016328512 0.087798044 -0.010999986
0.011754696 0.025717845 0.047724478 -0.12653044 0.0071273176 -0.13339125 -0.07960838 0.015043145
0.061516207 -0.012174562 -0.0049592233 0.019934867 -0.04975138 -0.07457037 -0.0686469 0.037716527
0.014928101 0.12263746 0.03876343 -0.026996985 -0.027607057 -0.02249781 -0.13085029 -0.031375192
-0.19392282 -0.10327237 -0.14291552 -0.028743671 0.087531716 0.0790786 0.09708954 -0.09393786
-0.030772103 -7.955779e-05 -0.0076577477 -0.07930427 -0.007342158 0.075209744 -0.11225243 0.022280542
0.059454016 0.0474152 -0.007450605 -0.010997126 0.02507579 -0.009113165 0.067994066 -0.08329653
-0.009179538 0.08401986 0.027299047 -0.029633945 0.050568867 0.07989496 -0.16484155 -0.014788561
0.028518531 0.017417375 0.046617825 0.052412935 0.024926992 -0.058866978 -0.028128898 -0.02887039
-0.13801293 -0.03702296 -0.056842405 -0.002911316 -0.08799122 0.0915037 0.0010115106 0.019190636
-0.041882955 -0.041197736 -0.055965036 0.026411671 0.09017989 -0.056879893 -0.017772475 -0.0069626076
0.003945698 -0.050129037 0.040574312 0.039472062 -0.031634007 -0.13712847 -0.065155484 0.046498343
-0.07697843 0.0073418757 -0.15382485 -0.019779721 0.018471709 -0.17605901 -0.11383929 -0.035726488
0.059909068 -0.018833727 0.10249154 -0.13843037 -0.056004394 -0.066033125 0.04460691 -0.009101736
-0.010314049 -0.07736824 -0.058574744 -0.035037793 0.068042085 -0.005289276 -0.14901732 0.09973025
-0.09082116 -0.080716915 -0.014118456 -0.06291374 0.0035398633 0.028495543 -0.04161122 -0.006752257
-0.024093736 -0.029427165 0.03516718 0.05821803 0.06930494 -0.041707538 -0.073583044 -0.037685808
0.06169978 -0.09130261 -0.07343533 0.1782964 -0.10850674 -0.17630315 -0.09473371 0.01617155
-0.033734765 -0.10521696 0.07630082 0.082882665 0.04327217 0.115239 -0.01571492 0.08817003
-0.003999882 0.21406043 0.24193223 0.099141605 0.08154854 -0.04580222 -0.072974704 0.0034107121
-0.1557371 0.05817229 -0.034668453 -0.07493046 0.090568036 0.033956572 -0.21733381 0.08225705
0.047105145 -0.11297792 0.040772654 -0.0898734 -0.13241097 -0.05220601 -0.025086349 -0.0018723878
-0.09996293 0.08191836 -0.06416089 -0.048802875 0.16703968 -0.079530306 -0.12285382 0.021497326
0.033145204 0.05174093 0.1469772 0.0946458 0.07038328 -0.110387966 -0.2206066 0.14465247
0.060817443 -0.22608 -0.009750791 0.08822893 0.09265091 0.060763363 0.020287098 -0.09559959
-0.13035123 -0.022533229 -0.03402302 0.022850245 -0.012521183 0.089651056 0.022870613 -0.037054755
-0.02820392 0.06655147 -0.027788345 0.03715736 0.08177499 0.0025006179 0.01734021 0.05969666
00000000: fc58 49bd 1319 b8bd d441 ca3d 88b9 c8bc
00000010: 78b3 98bc 4020 9dbd c9ea 93bd 9e10 3e3d
00000020: 7441 62bd 86c1 4d3d 8629 15bd 1eca 61bd
00000030: 708a 11bd 87cb 94bc a88e 2f3e a11c 70bd
00000040: eb40 a0bd 400b b43d ee75 4e3e 022c 1a3d
00000050: 97d5 b2bd 4fbc cf3d 04df 993d c9cb dd3c
00000060: 0715 8fbd 2b32 1ebd bd6f 0d3d 164b 643d
00000070: d4a3 d0bc 7171 a1bd dc96 d23d 7817 853d
00000080: c408 843d 3fea b2bd ead8 bcbd c834 e7bb
00000090: 2fd1 27bd 7494 a4bc b3d6 92bd 64c9 883d
000000a0: f554 8e3d 4a5f 65bd 4e4d 9f3d 261d f5bc
000000b0: 84a8 e23d 5fc3 853c 76cf b33d 4939 34bc
000000c0: c596 403c 3bae d23c be7a 433d 3291 01be
000000d0: 468c e93b b797 08be b809 a3bd 8677 763c
000000e0: 6bf8 7b3d d077 47bc fb80 a2bb 724e a33c
000000f0: 1ac8 4bbd 5ab8 98bd bf96 8cbd a57c 1a3d
00000100: fe94 743c 5929 fb3d 67c6 1e3d c828 ddbc
00000110: 3228 e2bc 544d b8bc 9efd 05be 4683 00bd
00000120: b493 46be 7780 d3bd 7258 12be d977 ebbc
00000130: d443 b33d f6f3 a13d e1d6 c63d 7e62 c0bd
00000140: c715 fcbc 43d8 a6b8 d8ed fabb 476a a2bd
00000150: 7c96 f0bb 9107 9a3d 9ae4 e5bd af85 b63c
00000160: 0e86 733d 7136 423d 3424 f4bb 4a2d 34bc
00000170: be6b cd3c 624f 15bc 7940 8b3d 5f97 aabd
00000180: c665 16bc 9b12 ac3d 40a2 df3c e3c2 f2bc
00000190: 4d21 4f3d f89f a33d 39cc 28be b84b 72bc
000001a0: b29f e93c e2ae 8e3c 55f2 3e3d f2ae 563d
000001b0: b133 cc3c 801e 71bd 936e e6bc 9981 ecbc
000001c0: 4353 0dbe 63a5 17bd 95d3 68bd c7cb 3ebb
000001d0: be34 b4bd 4b66 bb3d aa94 843a ae35 9d3c
000001e0: 768d 2bbd f5be 28bd 983b 65bd 4a5d d83c
000001f0: 3cb0 b83d e4fa 68bd 9597 91bc 9626 e4bb
00000200: ea4a 813b 1b54 4dbd 4031 263d 75ad 213d
00000210: a992 01bd 686b 0cbe 3d70 85bd 0c75 3e3d
00000220: dea6 9dbd 1e94 f03b 4384 1dbe 1509 a2bc
00000230: fb51 973c d048 34be 9324 e9bd f055 12bd
00000240: 3663 753d 3049 9abc 16e7 d13d b1c0 0dbe
00000250: dd64 65bd 603c 87bd bcb5 363d 731f 15bc
00000260: 42fc 28bc 3d73 9ebd 12ec 6fbd ca83 0fbd
00000270: a659 8b3d aa51 adbb ff97 18be 603f cc3d
00000280: 7200 babd e94e a5bd 1951 67bc ebd8 80bd
00000290: 0dfd 673b 7c6f e93c 8770 2abd 0942 ddbb
000002a0: 3a60 c5bc 3d11 f1bc 760b 103d 0776 6e3d
000002b0: c0ef 8d3d 86d5 2abd b5b2 96bd 6f5c 1abd
000002c0: e9b8 7c3d ddfc babd 4365 96bd 5593 363e
000002d0: c838 debd d088 34be bf03 c2bd 337a 843c
000002e0: 772d 0abd fd7b d7bd 9b43 9c3d 63be a93d
000002f0: 293e 313d 6d02 ec3d 93bc 80bc 7d92 b43d
00000300: 7111 83bb a832 5b3e 15bd 773e c10a cb3d
00000310: ec02 a73d 1c9b 3bbd c373 95bd 4186 5f3b
00000320: 8c79 1fbe 1146 6e3d 8200 0ebd 2475 99bd
00000330: bc7b b93d 0c16 0b3d c18c 5ebe 6276 a83d
00000340: 53f1 403d f860 e7bd 3a01 273d 8c0f b8bd
00000350: be96 07be f8d5 55bd e381 cdbc e96a f5ba
00000360: 5db9 ccbd d0c4 a73d c966 83bd 86e5 47bd
00000370: 730c 2b3e c9e0 a2bd c99a fbbd 291b b03c
00000380: 44c3 073d 4cee 533d 3181 163e a8d5 c13d
00000390: 1c25 903d 1613 e2bd b2e6 61be c71f 143e
000003a0: b61b 793d 8481 67be c8c1 1fbc 5fb1 b43d
000003b0: c3bf bd3d 01e3 783d 2131 a63c b8c9 c3bd
000003c0: cb7a 05be 9b97 b8bc b95b 0bbd 7030 bb3c
000003d0: a625 4dbc f99a b73d 275b bb3c bac6 17bd
000003e0: e80b e7bc 234c 883d 62a4 e3bc 5132 183d
000003f0: a579 a73d 68e1 233b 0e0d 8e3c 7c84 743d

res.1.block.0.bias f4 [64]
0.03020938 -0.061320223 -0.018931158 -0.030941961 0.052063875 -0.017208636 -0.018469736 0.03274045
0.035330694 0.070075035 -0.026846364 0.008666521 -0.04760695 -0.027094658 -0.01354195 0.016803773
-0.009310303 -0.034779675 0.044077117 -0.00517118 -0.025542695 -0.0051592574 0.06722059 0.007275791
-0.015919546 -0.059859708 0.06722322 -0.009335753 -0.05217329 -0.03521924 0.0011889288 0.06075618
-0.0029472527 -0.02507097 -0.028035196 -0.028460503 0.014297919 -0.061921388 -0.011051979 -0.006409902
0.0023373687 -0.041184586 0.002333483 0.043922335 0.06974714 -0.056959894 -0.045299325 -0.009141667
-0.040430665 -0.03607257 0.04081031 0.024016442 0.038404476 -0.060632482 0.05306924 -0.011436848
0.06404445 0.02460515 0.06747819 -0.02679449 0.0036845603 -0.044911902 0.06606318 0.009500785
00000000: a979 f73c ea2a 7bbd 8415 9bbc ff79 fdbc
00000010: ee40 553d 20f9 8cbc d84d 97bc da1a 063d
00000020: ebb6 103d 8083 8f3d e8ec dbbc 06fe 0d3c
00000030: 81ff 42bd 9ef5 ddbc 0edf 5dbc 11a8 893c
00000040: 3e8a 18bc 2275 0ebd 358a 343d 0073 a9bb
00000050: ea3e d1bc fd0e a9bb f3aa 893d c269 ee3b
00000060: b569 82bc 742f 75bd 54ac 893d fcf4 18bc
00000070: a9b3 55bd 0d42 10bd d5d5 9b3a 79db 783d
00000080: b226 41bb a361 cdbc 11aa e5bc 0026 e9bc
00000090: d241 6a3c 48a1 7dbd 5c13 35bc 280a d2bb
000000a0: 8a2e 193b 2bb1 28bd 59ed 183b e8e7 333d
000000b0: 97d7 8e3d c74e 69bd c98b 39bd eec6 15bc
000000c0: a09a 25bd d5c0 13bd b628 273d 21be c43c
000000d0: 034e 1d3d c459 78bd 225f 593d 9e61 3bbc
000000e0: bd29 833d bd90 c93c 0132 8a3d 1e80 dbbc
000000f0: aa78 713b 8bf5 37bd 224c 873d 2ea9 1b3c
